data.pth (torch, 4991 bytes, 6 tensors)

l1.weight f4 [8, 54]
0.5623909 0.56387275 -0.41128412 0.36279827 -0.21334094 0.6542265 -0.19293267 -0.29019636
-0.2655709 -0.4449111 0.41406646 0.39427963 -0.124619596 0.35520482 0.5439379 0.35292256
0.3965449 0.5692185 0.1125975 0.47100264 0.28883922 0.37780523 0.3690299 0.7519779
0.22722392 0.38697678 0.01617739 0.38550892 0.042312093 0.4637118 0.43493742 0.44671375
0.37995943 -0.323698 0.57093567 0.484796 -0.062058188 -0.39688945 -0.25797105 -0.21706259
0.43262762 0.12649943 0.28153926 0.5002913 0.051970597 0.635423 0.7659271 0.33714536
0.24968645 0.104133464 0.35390002 0.07786626 -0.3505216 0.10152893 0.41718507 -0.16526374
0.23184937 -0.36586902 -0.20516218 -0.4001638 0.32126233 -0.13879406 0.20887029 0.0999816
-0.16822505 0.39895755 0.19495948 0.5148287 -0.12787968 0.3224413 -0.23197512 -0.38404223
0.5195354 -0.40025556 0.35631913 -0.40032586 -0.4002212 -0.13945647 0.23771475 -0.20223185
0.59632504 -0.24897255 0.43744794 -0.37527752 -0.2063949 0.46731988 0.2025325 0.18945755
-0.09042313 0.27383903 0.4351525 0.29940265 0.25217488 0.34628642 -0.3705921 0.64426833
0.34150726 -0.16600764 0.49093834 -0.07357504 0.7928003 0.22822249 0.26460207 0.64717656
0.31276804 0.48537114 0.24053067 0.19437727 0.18160011 0.4699082 -0.35695532 0.0570497
0.24199234 -0.52916664 0.0578844 -0.067630574 -0.1685698 -0.19167984 0.38176006 -0.2747454
0.55421686 -0.34599122 0.5131076 -0.26255998 0.4798458 -0.5289881 0.4319128 0.75501
0.02076374 0.64508396 0.5839293 0.43103486 0.11400882 0.073352315 0.68114436 0.6180829
0.37794352 0.52524924 -0.34429187 -0.21980855 0.1112483 -0.19315766 0.5799306 -0.28763944
0.43888456 -0.3504056 0.05665801 0.2638976 -0.5166696 0.64155567 -0.25128657 0.4987456
-0.120648205 0.5103949 0.22170447 0.18225008 0.41139185 0.5657722 -0.13920668 0.46735474
0.08060814 0.37142265 -0.095381655 -0.078422464 0.29585823 0.41459948 0.46056992 -0.45296586
0.23087573 0.31022686 0.3320383 0.17006719 0.43039364 -0.4126294 0.5656455 -0.3957429
0.0006973953 -0.35529214 0.6027856 -0.42575595 0.35298556 0.7386083 -0.24606515 0.536756
0.5520565 0.19729619 0.21464396 0.35522145 0.4629222 -0.011826623 0.4318169 -0.2699116
-0.26670745 -0.34505326 -0.039032392 0.28980738 0.22634235 -0.3559144 0.43815094 0.4619646
0.37951925 0.3071146 -0.28397107 0.49875313 -0.38706988 -0.035801545 0.22429332 0.31018937
-0.6640783 -0.2518713 0.6335322 0.48798838 -0.38720292 0.34937784 0.37993124 0.43373987
0.42521974 0.6376891 -0.4295021 0.581563 0.13149364 -0.56023455 -0.14673808 -0.17276798
-0.2456568 -0.34211433 0.41173643 -0.2237359 0.15181871 -0.24536355 0.5265903 -0.080683954
0.45678166 -0.55209297 0.155059 0.5757975 0.3930032 0.7257747 0.81985146 0.25423545
-0.15182781 0.52743393 0.35879105 0.6983234 0.37334335 0.55592364 -0.2579898 -0.20925885
0.046228025 -0.3038772 0.5547757 -0.098734915 0.26037863 -0.46683833 -0.16840005 -0.017142465
00000000: daf8 0f3f f759 103f d593 d2be b2c0 b93e
00000010: 0c76 5abe 637b 273f 2490 45be 9e94 94be
00000020: e9f8 87be 63cb e3be 8500 d43e 05df c93e
00000030: 8f38 ffbd 68dd b53e 843f 0b3f 44b2 b43e
00000040: ef07 cb3e 4eb8 113f 8599 e63d 4227 f13e
00000050: bce2 933e b06f c13e 7df1 bc3e a081 403f
00000060: 63ad 683e d221 c63e 7286 843c 6d61 c53e
00000070: 724f 2d3d a26b ed3e 1eb0 de3e aab7 e43e
00000080: 0b8a c23e bfbb a5be d728 123f 2e37 f83e
00000090: ba30 7ebd 1835 cbbe c814 84be a845 5ebe
000000a0: 5e81 dd3e 1189 013e ea25 903e 1713 003f
000000b0: 1fdf 543d 15ab 223f cc13 443f 519e ac3e
000000c0: cead 7f3e ed43 d53d 6232 b53e 5978 9f3d
000000d0: 9177 b3be 66ee cf3d 4899 d53e e63a 29be
000000e0: ec69 6d3e 2f53 bbbe 0916 52be 45e2 ccbe
000000f0: 7f7c a43e 0820 0ebe 18e2 553e 27c3 cc3d
00000100: 3043 2cbe 2a44 cc3e 75a3 473e d0cb 033f
00000110: e4f2 02be 0717 a53e e38a 6dbe 2fa1 c4be
00000120: 4600 053f 4cee ccbe 766f b63e 83f7 ccbe
00000130: cbe9 ccbe adcd 0ebe 7f6b 733e de15 4fbe
00000140: c2a8 183f a9f2 7ebe 2df9 df3e 6024 c0be
00000150: 2f59 53be 8d44 ef3e ae64 4f3e 2901 423e
00000160: c32f b9bd a134 8c3e 4fcc de3e 4e4b 993e
00000170: 111d 813e 744c b13e 3fbe bdbe c5ee 243f
00000180: 0ada ae3e e8fd 29be 455c fb3e 83ae 96bd
00000190: f6f4 4a3f 28b3 693e ec79 873e 5dad 253f
000001a0: 2223 a03e 9182 f83e ac4d 763e d60a 473e
000001b0: 61f5 393e cf97 f03e d9c2 b6be f2ac 693d
000001c0: d7cc 773e 7777 07bf 3118 6d3d e681 8abd
000001d0: 909d 2cbe b847 44be 0e76 c33e 6eab 8cbe
000001e0: 28e1 0d3f c325 b1be 055b 033f 436e 86be
000001f0: 59ae f53e c46b 07bf ad23 dd3e 5648 413f
00000200: b818 aa3c 3924 253f 647c 153f 9ab0 dc3e
00000210: 757d e93d bd39 963d 7a5f 2e3f ae3a 1e3f
00000220: d081 c13e bc76 063f 0647 b0be 7e15 61be
00000230: 26d6 e33d 1fcb 45be 5576 143f 7a45 93be
00000240: 7ab5 e03e 5d68 b3be 3b12 683d 961d 873e
00000250: 7544 04bf fe3c 243f a2a8 80be 955b ff3e
00000260: 6816 f7bd 3da9 023f 7f06 633e c49f 3a3e
00000270: f4a1 d23e 72d6 103f 328c 0ebe 1f49 ef3e
00000280: e115 a53d 1c2b be3e 7557 c3bd f59b a0bd
00000290: bb7a 973e 6246 d43e d2cf eb3e 24eb e7be
000002a0: b06a 6c3e 0ed6 9e3e ed00 aa3e 1826 2e3e
000002b0: 8e5c dc3e 2944 d3be 25ce 103f d09e cabe
000002c0: 68d1 363a dae8 b5be 2850 1a3f affc d9be
000002d0: 86ba b43e 6f15 3d3f 81f8 7bbe d768 093f
000002e0: 9353 0d3f 0308 4a3e a0cb 5b3e 96df b53e
000002f0: 2304 ed3e 74c4 41bc 1b17 dd3e da31 8abe
00000300: e18d 88be d2aa b0be 6ee0 1fbd a261 943e
00000310: 4ac6 673e 6a3a b6be 5255 e03e a086 ec3e
00000320: 5950 c23e 203e 9d3e a864 91be 925c ff3e
00000330: 062e c6be a4a4 12bd 26ad 653e 24d1 9e3e
00000340: 0901 2abf 46f5 80be 2b2f 223f 9dd9 f93e
00000350: 763f c6be a7e1 b23e 5986 c23e 2713 de3e
00000360: 67b6 d93e 983f 233f b3e7 dbbe 50e1 143f
00000370: 45a6 063e 886b 0fbf 8242 16be 17ea 30be
00000380: 758d 7bbe 9c29 afbe 1ecf d23e 061b 65be
00000390: 5d76 1b3e 9540 7bbe 9fce 063f a13d a5bd
000003a0: 49df e93e f755 0dbf c9c7 1e3e 7767 133f
000003b0: b737 c93e 5fcc 393f c9e1 513f 262b 823e
000003c0: c078 1bbe e905 073f 76b3 b73e 53c5 323f
000003d0: dc26 bf3e 0351 0e3f 3d17 84be f447 56be
000003e0: 9959 3d3d cb95 9bbe c805 0e3f 8835 cabd
000003f0: 5950 853e 6f05 efbe 1071 2cbe 5b6e 8cbc

l1.bias f4 [8]
0.91618663 0.4001977 0.52912825 0.73098785 0.560287 0.26565662 0.55444294 0.9311089
00000000: 358b 6a3f b7e6 cc3e f374 073f 0522 3b3f
00000010: f86e 0f3f 2504 883e f9ef 0d3f 275d 6e3f

l2.weight f4 [8, 8]
1.215937 0.16307122 -0.77470034 -0.14380287 -0.93390054 0.21851619 0.98149556 1.0475708
0.66028416 1.2195952 0.62917376 -0.59800047 0.49096584 1.1241704 0.1684828 -0.817706
-0.31466538 0.9815882 0.53361946 0.84626085 -0.18711123 0.4629319 -0.92159986 1.3647257
0.2047004 -0.81544113 0.98721534 1.1427665 0.768165 -0.41794768 -0.96347165 0.62584734
1.5376295 -0.853583 0.49648404 0.10354487 1.1569728 -0.72748786 0.68457794 0.2690926
-0.029337335 0.7222165 -0.2378778 0.565522 -0.20005092 0.8090835 -0.0007247101 1.0326169
-0.24919787 -0.10183686 -0.21371423 0.2592795 -0.0045214635 -0.07729465 0.01452449 -0.12548
0.4101611 0.7368591 0.67767847 0.17784952 0.8821325 0.4098676 1.2969581 -0.948993
00000000: d3a3 9b3f 24fc 263e c352 46bf 0f41 13be
00000010: 1b14 6fbf b5c2 5f3e 4b43 7b3f cd16 863f
00000020: 6208 293f b21b 9c3f 8811 213f 8f16 19bf
00000030: e05f fb3e d1e4 8f3f c186 2c3e 2e55 51bf
00000040: d21b a1be 5d49 7b3f 499b 083f 8da4 583f
00000050: 169a 3fbe 6905 ed3e f8ed 6bbf 55af ae3f
00000060: fb9c 513e c0c0 50bf 25ba 7c3f 2c46 923f
00000070: 76a6 443f 3dfd d5be 14a6 76bf 8837 203f
00000080: 0bd1 c43f 6a84 5abf 2833 fe3e 550f d43d
00000090: af17 943f a53c 3abf 8040 2f3f 81c6 893e
000000a0: da54 f0bc 2ee3 383f 3d96 73be 0dc6 103f
000000b0: 26da 4cbe 1920 4f3f 79fa 3dba ca2c 843f
000000c0: ba2d 7fbe d88f d0bd e7d7 5abe 48c0 843e
000000d0: c928 94bb a84c 9ebd 20f8 6d3c d47d 00be
000000e0: a300 d23e cca2 3c3f 567c 2d3f 2f1e 363e
000000f0: 6fd3 613f 2bda d13e b902 a63f 35f1 72bf

l2.bias f4 [8]
0.6159219 -0.18333717 0.05299702 0.29968342 0.5489145 0.5031262 -0.21853168 -0.3558371
00000000: 0fad 1d3f bdbc 3bbe 6713 593d 1b70 993e
00000010: a985 0c3f e1cc 003f c5c6 5fbe 4830 b6be

l3.weight f4 [7, 8]
0.26036766 0.101888694 0.06708348 -1.0813618 -0.19692992 0.2903088 -0.30386832 -1.1181962
-1.3139933 -0.012444368 -1.1697958 0.4202646 0.5649045 -1.3078517 -0.020186616 0.296133
0.8414465 -1.2081954 -1.7710282 -0.5147775 0.6716038 0.14975022 -0.18752247 -0.51293963
-0.48789448 -1.1358693 -0.16693956 0.5950621 0.6118389 0.039658338 0.28886196 -0.6083456
-1.5878403 -0.00037783032 0.385583 -0.062955484 -0.1937497 -0.37912408 0.070312805 0.37204513
-0.42351952 -1.189741 0.55469227 0.37677026 -1.3920375 0.6389334 -0.25634038 -1.1818026
-0.43152076 0.6046115 -0.9046953 -1.1971426 0.18254305 -0.19514465 0.1311657 0.52659357
00000000: e94e 853e 05ab d03d 1063 893d 106a 8abf
00000010: ffa7 49be 5ba3 943e a194 9bbe 0e21 8fbf
00000020: ef30 a8bf 76e3 4bbc debb 95bf ec2c d73e
00000030: 959d 103f af67 a7bf 675e a5bc bf9e 973e
00000040: 0a69 573f 26a6 9abf 0db1 e2bf 75c8 03bf
00000050: 3aee 2b3f 1f58 193e e405 40be 0350 03bf
00000060: 4ecd f9be 2a64 91bf 34f2 2abe fd55 183f
00000070: 79a1 1c3f c870 223d b7e5 933e 8abc 1bbf
00000080: 5a3e cbbf 8717 c6b9 236b c53e ceee 80bd
00000090: 5266 46be 8d1c c2be 2900 903d b37c be3e
000000a0: 8dd7 d8be 6f49 98bf 5000 0e3f 08e8 c03e
000000b0: 492e b2bf 2491 233f 0c3f 83be 4f45 97bf
000000c0: 4af0 dcbe d2c7 1a3f 1c9a 67bf f83b 99bf
000000d0: 91ec 3a3e 00d4 47be 4d50 063e d6ce 063f

l3.bias f4 [7]
-0.011178689 -0.43046677 0.4017427 0.109804146 -0.2888593 -0.096059725 0.14281617
00000000: d226 37bc 2466 dcbe 38b1 cd3e ffe0 e03d
00000010: 5ee5 93be f6ba c4bd 673e 123e
