data.pth (torch, 9215 bytes, 6 tensors)

l1.weight f4 [8, 139]
00000000: d3ac c33d 4da7 cabc bbf3 88be 1e03 1cbe
00000010: 91d1 b3bd 63b7 b0be 705f b0be ea3b bf3e
00000020: fe2b fcbd a8ec 883e 12fe 2ebe f7b9 bbbe
00000030: 5481 c23e 53ed b93e b81c cb3e 8e64 d23e
00000040: edaa 723e 47e7 dbbd 6561 b53e 6d77 e23e
00000050: 57fb 263f b838 3fbe c430 4d3e d71b 58be
00000060: dde7 3dbe 204a e53e b011 99be 21fe 5cbe
00000070: 9cb3 67be d4e9 8fbd 5002 e03e 0702 633e
00000080: da70 a23e c469 043f c26a 88be 3d6e e53e
00000090: 2ed6 1c3f 8466 5ebe bf81 47be df06 89bd
000000a0: 579c b2bd d83c 5f3e c458 e63e ae4a cf3e
000000b0: 1dc7 97bc 0d4e cbbe c51b 1f3f adf6 adbd
000000c0: cc69 f83e a424 afbe a1a9 44be c912 a93e
000000d0: 586d 9f3c b55c d73e 03e7 7ebc 87c1 65be
000000e0: 1e04 46be 8c8a 45bd 1c12 57be 9f38 2c3f
000000f0: 22b7 e0be 2334 b5be 36c4 e0be 44c0 e0be
00000100: 5509 86be fcf0 0ebe 41ab 88be 747a f33d
00000110: dc61 b5be 2235 b3bd 786c 003f 2cda c83e
00000120: b6fd 9b3e d4f6 e8bd fb61 d93e e2c6 7a3e
00000130: b90c 14be 48cf 20be 274a 40be 7a63 073f
00000140: b7f3 d03d f095 d03e 3644 003c 5251 a4bc
00000150: b719 f63e d931 4cbe 7cae 52bd 5a41 2d3d
00000160: 23ad 30bd 425d 813e 297c 8c3e 96a2 90be
00000170: 361e be3e 61e6 bb3e c180 2e3e 4c17 203e
00000180: 2182 4ebe e8e4 9a3d f5f7 2abe 4c32 5dbe
00000190: a940 a6be 51f0 9dbd 3de4 cbbe 9ea0 b73e
000001a0: 440f 073f faac 643e 7862 cf3e 4d95 003f
000001b0: 281a dc3e 89df e63e c1ae 58bd a768 f5bc
000001c0: 93ea 57be 7168 6dbe 1fc4 e0be b453 28be
000001d0: cb1d c83e 731d 1ebe 1aa3 93be dedf c239
000001e0: 4ebf 863e d95f 593e 53fd f53e 6d51 713e
000001f0: 4c2a fd3e 6889 38be 9d92 c63e d7d0 c0be
00000200: 7cba 063e 22aa 35be 9e40 0e3e 3f73 92be
00000210: b2fa 8a3e 56c2 8c3e 96e1 893d 2df0 293f
00000220: 952b 84bd 8247 aa3e 5b0d 65bc 53ea cb3e
00000230: 533c bd3e 3280 5abe f3f1 443e fe10 9c3e
00000240: e825 c2be 8a85 f7be 82e0 ccbd a0f7 adbe
00000250: acfd 4e3e 33ef 14be 2639 bfbe 780a 78be
00000260: 6a7c 2fbe a1a7 363c 2d51 163f 3fb8 d73e
00000270: 892f d1bd 1b0f d63e 744c 0b3f a9a6 d5be
00000280: 6c76 4ebe b211 7ebe fc64 0bbc a897 a3be
00000290: 9773 8b3d cbb2 c6be 90b6 9abe 2e24 7dbe
000002a0: 12f0 473f c69b 67be f18f 193f 070c 813e
000002b0: c71c f53e fb0f 6ebd bd33 fa3e f869 c5bc
000002c0: 5e97 0fbf 1192 88bc 804f b43a ff68 84be
000002d0: 96ea e4be 8457 713e 1dd2 0c3f 25f5 d8be
000002e0: bbed 1bbe 7db6 003f 535c e3bd 9968 0b3f
000002f0: 2a14 5cbe 4a1e d03c 71d7 bc3e f8fd 0cbe
00000300: 28c0 eb3e fef7 eb3e aebc dcbe 5cbe 883e
00000310: 65db df3e 80ea 2dbe 1f83 d5be df87 d5be
00000320: 0095 6a3e cc82 d5be aa7d d5be 5b66 80bd
00000330: d015 953e d5d4 abbe 9c2f d7be 82c5 ebbe
00000340: 6cd0 85be 00f0 f63e 813c 2abe 2595 8f3e
00000350: 17a9 c3bd 013c a2bd 8d7c d03e f53a babe
00000360: b78e a03e e80e 1abb b7c2 5abe d212 053f
00000370: efc5 203f 6ca6 143e 2015 7dbd 887b 0d3f
00000380: a929 a53e 2eda 673d 984f f93e 45d6 9cbe
00000390: 5461 96be de11 9b3e 6021 8cbe cfdf 0f3f
000003a0: e9cf 6cbd 57a0 eb3e 7c1e c63e ae44 abbe
000003b0: 88e0 803e 5cbe f4bd becf b1bd 6f52 d7be
000003c0: 93d2 153f fa34 4dbe 4f3b 963e b90c 86be
000003d0: 1e7c d53e 1008 0a3f 0812 0f3f 6b69 2bbe
000003e0: 2bf3 a8bd 41b3 a2be 28e5 803e e4e7 2dbe
000003f0: ad35 3c3e 1255 d93e 4f32 aa3e 728e c03e
0.09554448 -0.024737978 -0.26748452 -0.15235564 -0.08780206 -0.34514913 -0.34447813 0.37350398
-0.12313078 0.26743054 -0.17089108 -0.36665317 0.37989295 0.36313877 0.39670348 0.41092342
0.23698016 -0.10737472 0.3542587 0.4423174 0.65227264 -0.1867398 0.20038134 -0.2110437
-0.1854548 0.44783115 -0.29896307 -0.21581317 -0.2262711 -0.07027021 0.43751764 0.22168742
0.31726724 0.51723886 -0.2664395 0.44810668 0.6126431 -0.21718794 -0.19483088 -0.06690764
-0.08721226 0.21800554 0.44989598 0.40486664 -0.018527562 -0.39707986 0.6215175 -0.08494315
0.48518217 -0.34207642 -0.19205333 0.33022144 0.019461319 0.42062917 -0.015558007 -0.22437106
-0.19337508 -0.04822783 -0.21003002 0.67273897 -0.4388972 -0.3539134 -0.43899697 -0.43896687
-0.26178995 -0.13959116 -0.26693156 0.118885905 -0.35426223 -0.08750369 0.5016551 0.39228952
0.30467004 -0.11375204 0.42457566 0.2448993 -0.14457978 -0.15704072 -0.18778287 0.52886164
0.10202735 0.40739393 0.007828763 -0.020058308 0.48066494 -0.1994089 -0.051435933 0.042298652
-0.043133866 0.25266463 0.27438477 -0.28249043 0.37132424 0.36699203 0.17041303 0.15633887
-0.20166828 0.07563192 -0.1669615 -0.21601218 -0.32471207 -0.07711852 -0.3982257 0.3586473
0.5275767 0.2233161 0.40504813 0.50227815 0.42988706 0.4509242 -0.052901033 -0.029957129
-0.21085577 -0.23184372 -0.4389963 -0.1643818 0.3908523 -0.15440921 -0.28835374 0.00037169358
0.2631783 0.21227969 0.48044834 0.23566218 0.49446332 -0.18021166 0.38783732 -0.37659332
0.13157076 -0.17740682 0.13891837 -0.2860355 0.2714439 0.27492017 0.0673248 0.66382104
-0.06453625 0.3325768 -0.013980235 0.39827213 0.36960086 -0.21337965 0.19232921 0.30481714
-0.37919545 -0.4834407 -0.10003759 -0.33977985 0.20213956 -0.14544372 -0.37348288 -0.24222744
-0.17137304 0.011148364 0.58717614 0.42132756 -0.10214145 0.418084 0.54413533 -0.41728714
-0.20162362 -0.24811438 -0.008507963 -0.31951642 0.068091564 -0.38808283 -0.3021741 -0.24720833
0.78100693 -0.22618017 0.5998526 0.2520449 0.47873518 -0.05812071 0.48867598 -0.024098381
-0.56090343 -0.016671212 0.0013756603 -0.25861356 -0.44710225 0.23568541 0.5500811 -0.4237453
-0.15227406 0.50278455 -0.11101594 0.5445648 -0.21492067 0.025405068 0.3688312 -0.13768756
0.4604504 0.4608764 -0.431127 0.26707733 0.43722072 -0.16983986 -0.417016 -0.41705224
0.22908401 -0.41701353 -0.41697437 -0.06269523 0.29118204 -0.33560815 -0.4202851 -0.46049124
-0.26135576 0.4822998 -0.16624643 0.28043476 -0.09553736 -0.07921601 0.40720025 -0.36373106
0.31358883 -0.002350742 -0.2136334 0.5198184 0.6280202 0.1451661 -0.061787724 0.5526662
0.32258347 0.056604557 0.48693538 -0.30632225 -0.2937113 0.3028707 -0.27369213 0.5620088
-0.057815466 0.46020767 0.38695133 -0.33450836 0.25171304 -0.11950371 -0.08682202 -0.4205508
0.58524436 -0.2003974 0.29342124 -0.26181582 0.41696256 0.5391855 0.5588689 -0.16739433
-0.082495056 -0.31777385 0.25174832 -0.1698299 0.1837985 0.42447716 0.33241507 0.37608677

l1.bias f4 [8]
00000000: 6fbd e03e 4986 d53e 1a49 ef3e f950 253f
00000010: bc75 9b3f 2506 fa3e 4648 2c3f 9a3b 9a3f
0.43894526 0.41704014 0.4673546 0.6457668 1.2145305 0.48832813 0.6729778 1.2049439

l2.weight f4 [8, 8]
00000000: d769 003f 5322 03bf ee04 2cbe d409 883f
00000010: 77e1 b4be d79a 653f a9e8 bc3f 5987 07bf
00000020: 3315 933e f5bd ebbe d710 1a3d 48dd 5cbf
00000030: 744e dc3f 8e38 6d3f b4bc d83e 9494 483f
00000040: abd4 83bf b20d 6dbf d49e 8f3f abec 593f
00000050: 05d8 11bf bc33 093f b5ec 043f 2c61 073f
00000060: c0d3 01bd 0476 a23d 94d2 113e 82b0 55be
00000070: b8d7 40be 2eda fdbd c456 c03d e0dc 5abc
00000080: e1e2 7bbf 2c70 a63c 4ab6 d6be 9fc6 a33f
00000090: df22 5a3e 472f afbf d64b 0fbf 81f6 b43f
000000a0: e93e 003e 8109 003f 35d5 0dbf 49c3 ca3e
000000b0: 3e43 203f 432d 47bf 73ab c33e e7da ac3f
000000c0: 2233 863f 49bd 753f 6fa2 f3be f886 553f
000000d0: b03a 45bf 06b0 7a3f 4067 713f 8bcb 343f
000000e0: 5c55 9abf 6ba7 2d3f dc6d b73f 78ac e5bd
000000f0: ffc7 563f 1ec6 583f 3cdc 37bf a15f bd3e
0.501615 -0.5122425 -0.16798756 1.0627999 -0.35328266 0.8968939 1.4758502 -0.529409
0.2872711 -0.46043363 0.037613716 -0.8627515 1.7211442 0.9266442 0.4233147 0.7835171
-1.0299276 -0.9259902 1.1220345 0.8512675 -0.56970245 0.53594565 0.51923686 0.5288265
-0.03169608 0.07932666 0.14240485 -0.20868114 -0.1883229 -0.1239513 0.09391549 -0.013358325
-0.98393065 0.02031716 -0.4193595 1.2794989 0.21302365 -1.3686303 -0.5597509 1.4137727
0.12523998 0.500145 -0.55403453 0.39602116 0.62602603 -0.7780344 0.38216743 1.3504304
1.0484354 0.9599195 -0.47584864 0.8340907 -0.77042675 0.9792484 0.9429817 0.7062308
-1.20573 0.67833585 1.4330401 -0.112145364 0.8389892 0.846773 -0.71820426 0.36987022

l2.bias f4 [8]
00000000: 2797 48bd c1b5 853f a9ec 74be c78e 18be
00000010: f406 143f 379b 7b3f 4598 32be d2fc 3cbe
-0.048972275 1.0446092 -0.23918404 -0.14898215 0.5782311 0.98283714 -0.17440899 -0.18455818

l3.weight f4 [14, 8]
00000000: 4cba be3e ad9b 27bf 7bec ea3e bcf7 d73d
00000010: fd9d 67bf 51a0 29bf 5cb7 cabe 6c49 423e
00000020: e6f6 dabe 9ac5 923e 3632 ecbd 9b19 ad3e
00000030: 8be3 8bbf 362a bfbe 81b2 eabe eae3 9c3e
00000040: 9c44 a2bf c69f c9be 7869 8bbf ad49 ab3e
00000050: acfe ecbd 7fa6 1a3f c836 ba3e 1321 d0bf
00000060: ed36 72bf e997 0bbf b685 253f cd10 8fbe
00000070: e8fe a33e c0b3 5bbd 4c19 f4be fa5c 363d
00000080: 44a5 0f3f 3a3c d9bf 51ae c23e 0f46 90be
00000090: 9efd 77be 82f2 9bbe 274e 66bd 00f9 9fbf
000000a0: 4da8 91bf e5a7 c5bf d7af 6bbf 8247 593e
000000b0: ea47 423f 8184 9e3e 35ba 533e e297 a1be
000000c0: 4708 963e 5103 92bf aa0d 91bf 9a12 0e3e
000000d0: e625 36bf 39d5 a93d 4ff0 103f cc9d 1bbf
000000e0: 4de6 253f ac2e 37bf 34b9 5cbe c1eb 873e
000000f0: 5875 97bf 0534 9fbf 8b3b b63e 8f8f 8abf
00000100: d68d acbd 14c3 4cbf b4db 6f3e 3f8c 873e
00000110: 8653 123f 3e29 b33e a003 a0be 91b4 96bf
00000120: 0a4b 91bf 7a11 3f3e 0c8d 0e3f 40bd 523d
00000130: a450 3cbf da79 acbf a790 adbf d83c 143f
00000140: dfb7 d23e 8ef1 df3e 556c a1bf b83d 8cbd
00000150: fe9b 45bf f61e 90bf adbf 08bd 9bb5 72bf
00000160: ba2f a3be 9798 6b3f 3ea0 8fbf 4a99 793e
00000170: 946e 82bf 6d52 453f 84e9 57bf 03e9 d1bf
00000180: 186f 9fbf e655 a83e 7fa3 2abf cab9 1b3e
00000190: 43b8 a23f 68a0 e63e 804f 99bf 246e 19bf
000001a0: 1cb8 c1bf 7377 323f 58d7 d2bf e342 943e
000001b0: 8e62 21bd 6163 78bd 22d3 fdbf f98d 403f
0.37251508 -0.6547192 0.45883545 0.105452985 -0.90475446 -0.6626025 -0.39593017 0.1897332
-0.42766494 0.28666383 -0.115330145 0.33808598 -1.0928816 -0.37336892 -0.45839313 0.30642635
-1.2677188 -0.3937971 -1.0891562 0.33454648 -0.11572012 0.604103 0.3636992 -1.6260093
-0.9461506 -0.5452867 0.6465715 -0.27942505 0.32030416 -0.05363822 -0.4767555 0.044522263
0.5611155 -1.6971505 0.38023618 -0.2817845 -0.24217841 -0.30458456 -0.056226876 -1.2497864
-1.1379486 -1.5441862 -0.92065185 0.21218684 0.7589098 0.30960467 0.20676501 -0.3156119
0.2930319 -1.1407262 -1.1332295 0.13874283 -0.7115158 0.08292622 0.5661668 -0.60787654
0.64804536 -0.7155559 -0.21555024 0.26547053 -1.1832685 -1.243775 0.35592303 -1.0825061
-0.084254906 -0.79985166 0.23423654 0.26474187 0.57158697 0.34992403 -0.31252766 -1.1773854
-1.1351025 0.1865901 0.5568397 0.051450014 -0.7356055 -1.3474686 -1.3559769 0.5790534
0.41155908 0.4373898 -1.2611185 -0.068477094 -0.7719115 -1.1259449 -0.03338592 -0.9480836
-0.3187235 0.9202971 -1.1220777 0.24374881 -1.0189996 0.77078897 -0.8434069 -1.6399235
-1.2455778 0.32878035 -0.66655725 0.15207592 1.2712482 0.45044255 -1.1977386 -0.59933686
-1.5134311 0.69713515 -1.6471968 0.2895728 -0.03940063 -0.06064165 -1.9830058 0.75216633

l3.bias f4 [14]
00000000: cf8e f1be 1f75 91be e047 77be 8c89 0fbf
00000010: d984 c33e 54a7 b1bd 5782 32bc b0ea 30be
00000020: 7d01 04bf 156c f53d c227 4b3e f687 cd3e
00000030: 44c8 953d aa58 513e
-0.47179267 -0.2840967 -0.24148512 -0.56069255 0.38187292 -0.086744934 -0.010895333 -0.17277026
-0.5156477 0.11983506 0.19839385 0.40142792 0.07313588 0.20443979
